Gesture Control PowerPoint using Mediapipe/model/keypoint_classifier/keypoint_classifier.tflite (tflite, 6468 bytes, 6 tensors)

arith.constant f4 [2, 10]
0	0x3f12b732	0.57310784
1	0x3f255b33	0.64592284
2	0x3fa42312	1.2823203
3	0xbf226ac4	-0.6344416
4	0x3e33a279	0.17542447
5	0xbea5fe63	-0.32420644
6	0x3fa284f6	1.2696826
7	0xbf67b0fe	-0.90504444
8	0xbfd6d5fe	-1.6784055
9	0x3f292ff0	0.6608877
10	0xbf63cc03	-0.8898317
11	0xbf58dcaa	-0.84711707
12	0xbf92a9c8	-1.1458063
13	0x3f55c279	0.83499867
14	0xbf800120	-1.0000343
15	0x3fb97c14	1.4490991
16	0xbef49890	-0.47772646
17	0x3f6923c6	0.9107021
18	0x3fb90050	1.445322
19	0xbf959138	-1.1684942

arith.constant1 f4 [10, 20]
0	0x3f107f23	0.56443995
1	0xbe8c41d6	-0.2739398
2	0xbea954a4	-0.33072388
3	0xbeafcc9b	-0.3433579
4	0xbf65cbb7	-0.8976397
5	0x3f2f7d16	0.6855024
6	0x3ef82335	0.4846436
7	0xbf214798	-0.6299987
8	0x3f041ead	0.5160931
9	0x3d803b19	0.06261272
10	0x3f49ef92	0.7888118
11	0x3e8117dd	0.2521352
12	0x3cc0ff3e	0.023559209
13	0x3e9f3883	0.31097803
14	0x3e6b5ea8	0.22985327
15	0x3f07ecb9	0.53095585
16	0xbf3d51d2	-0.7395297
17	0x3f0bd9ac	0.54629016
18	0xbee2a7b0	-0.4426856
19	0x3f1f75eb	0.62289304
20	0x3da28741	0.07935954
21	0xbefb2111	-0.49048665
22	0x3f332310	0.69975376
23	0x3e1d1b53	0.15342455
24	0xbf2979e2	-0.66201603
25	0x3e7fea8d	0.24991818
26	0x3eb4e019	0.35327223
27	0xbc296464	-0.010338876
28	0x3f37bea0	0.71775246
29	0xbe2012b9	-0.15632142
30	0x3e0a39f9	0.13498677
31	0x3e9f101f	0.31066987
32	0xbcf1294b	-0.029438635
33	0x3eb038ae	0.34418243
34	0x3df9a2d4	0.1218926
35	0x3eb6a1a0	0.35670185
36	0xbe944d03	-0.28965005
37	0x3eb4ef42	0.3533879
38	0x3e8fea84	0.2810861
39	0x3e179f7f	0.14806937
40	0x3e4430a7	0.19159184
41	0xbec221ba	-0.37916356
42	0xbf135a9d	-0.5756014
43	0x3c5c955a	0.013463343
44	0xbe914efc	-0.28380573
45	0x3ecaa5f2	0.3957973
46	0x3f5ef5c0	0.87093735
47	0xbe450319	-0.19239463
48	0x3f241d2e	0.64107025
49	0x3ddb80b3	0.10717907
50	0x3f31e982	0.6949693
51	0x3f29a63d	0.66269284
52	0x3c53a9e1	0.01291892
53	0xbe9018f7	-0.28144047
54	0x3e5440e0	0.20727873
55	0xbecd8602	-0.40141302
56	0xbed89814	-0.42303526
57	0x3e7245be	0.23659417
58	0x3e04e876	0.12979302
59	0xbedbee9c	-0.42955482
60	0xbe358f4d	-0.17730446
61	0xbdb9f59d	-0.0908005
62	0xbe41610c	-0.18884677
63	0x3ebf9cfd	0.3742446
64	0x3d670ce0	0.056408763
65	0xbec4f957	-0.3847148
66	0xbf1b3bc7	-0.6063809
67	0x3f411e52	0.7543689
68	0xbe4faa53	-0.20279817
69	0x3e3ad82f	0.1824653
70	0xbee1b305	-0.44081894
71	0xbf27c939	-0.65541416
72	0x3f4e20bd	0.80518705
73	0x3f088f83	0.5334398
74	0xbeb40c09	-0.35165432
75	0xbda20d68	-0.07912713
76	0x3f23219e	0.6372317
77	0xbe926606	-0.28593463
78	0x3e0b7999	0.13620605
79	0xbe8b762a	-0.2723859
80	0x3ebe13f6	0.37124604
81	0xbea7739b	-0.32705387
82	0x3dba90dc	0.09109661
83	0xbe6a6c32	-0.22892836
84	0xbea63127	-0.32459375
85	0x3f28443e	0.6572913
86	0x3f5948a4	0.84876466
87	0xbf427a98	-0.75968313
88	0x3edb2251	0.4279962
89	0xbe6b7bd6	-0.22996458
90	0x3eb87bff	0.36032102
91	0x3f380323	0.71879786
92	0xbe3a2f04	-0.18181998
93	0xbcae054e	-0.021242764
94	0x3dc4ce8f	0.096097104
95	0x3f1839ff	0.59463495
96	0xbe6a6719	-0.22890891
97	0x3ee3f6de	0.44524282
98	0x3d975192	0.07388605
99	0x3ed73212	0.42030388
100	0xbf41a60f	-0.7564401
101	0xbe3c23b1	-0.1837299
102	0xbf376bba	-0.7164875
103	0xbdc7ec80	-0.09761906
104	0xbd43aee7	-0.04777422
105	0xbfa227a0	-1.2668343
106	0xbfbd72a4	-1.480061
107	0x3e0fe366	0.1405159
108	0xbe0c2072	-0.13684252
109	0x3f21107f	0.62915796
110	0xbf9c6a5c	-1.2219958
111	0xbfaed78a	-1.3659527
112	0xbeaefca8	-0.34177136
113	0x3ed60ba5	0.4180576
114	0x3c52be4a	0.012862751
115	0xbf71df56	-0.9448141
116	0x3e1fe331	0.1561401
117	0xbf2d67cf	-0.67736524
118	0xbeeed116	-0.46643895
119	0xbef771f7	-0.48329136
120	0xbe4aff50	-0.19823956
121	0xbf50de12	-0.8158885
122	0x3f309614	0.68979
123	0xbeb87143	-0.36023912
124	0xbed5e566	-0.4177658
125	0x3f432a62	0.76236546
126	0x3f139459	0.57648236
127	0xbe014922	-0.12625554
128	0xbda932b2	-0.082616225
129	0xbe938aac	-0.28816736
130	0x3f3f1a98	0.74649954
131	0x3f2768d8	0.65394354
132	0xbe749618	-0.23885381
133	0x3e2172c0	0.1576643
134	0x3f0e30ee	0.5554341
135	0x3e1f5b8a	0.15562263
136	0xbf22f08c	-0.63648295
137	0xbed71f2c	-0.4201597
138	0xbd10ecea	-0.03538219
139	0x3ed78f59	0.42101553
140	0xbe334b8f	-0.17509292
141	0x3f1f144b	0.6214034
142	0xbe25ce71	-0.16192032
143	0x3f182e85	0.59445983
144	0x3f2c135d	0.67217046
145	0xbe08d363	-0.13361888
146	0xbeda89b5	-0.42683187
147	0x3f54fb4e	0.8319596
148	0xbe82398a	-0.25434524
149	0x3edf54f9	0.43619516
150	0xbef1b9aa	-0.47211963
151	0xbee112d4	-0.43959677
152	0x3ed2d104	0.4117509
153	0xbebea408	-0.3723452
154	0xbe9c7d55	-0.3056437
155	0xbe66dbdb	-0.22544806
156	0x3f5957d0	0.84899616
157	0xbe8482f7	-0.25881168
158	0xbd90d16e	-0.070711955
159	0x3e54be26	0.20775661
160	0xbea72f2d	-0.3265318
161	0x3f44ce31	0.76877123
162	0xbe9d0fcb	-0.30676112
163	0x3ef48bbd	0.47762862
164	0x3f8fb69d	1.1227604
165	0xbf054874	-0.5206368
166	0xbf064b41	-0.5245858
167	0x3f3bad08	0.733109
168	0xbe1e06a3	-0.15432219
169	0x3ddfd8da	0.10930033
170	0xbf32ffe1	-0.6992169
171	0xbf05473b	-0.52061814
172	0xbd3ed42d	-0.046589065
173	0x3e020c9a	0.1270012
174	0xbe2cca05	-0.1687394
175	0xbef55bb4	-0.47921526
176	0x3f4d7ed7	0.8027167
177	0xbe651100	-0.22369766
178	0xbe51013b	-0.20410626
179	0xbe95a2b6	-0.292257
180	0x3eb58c54	0.35458624
181	0xbf03996b	-0.5140597
182	0xbf756e7d	-0.95871717
183	0xbea12053	-0.31469974
184	0xbe4fa3fb	-0.20277397
185	0xbe7b92fa	-0.24567786
186	0xbe8b386a	-0.27191478
187	0xbd2ad7d0	-0.04170972
188	0x3f13d34b	0.5774428
189	0xbddc0f8c	-0.10745153
190	0x3f5fcc24	0.8742087
191	0x3f5fe334	0.8745606
192	0xbbc865ce	-0.0061156517
193	0xbe9d0bce	-0.3067307
194	0xbe641502	-0.22273639
195	0x3f3b8175	0.7324441
196	0xbe84abb5	-0.25912252
197	0xbe36e8a5	-0.17862184
198	0x3efd06d6	0.49419278
199	0xbee213f8	-0.4415586

arith.constant2 f4 [2]
0	0xbd571e29	-0.052518997
1	0x3d571e2f	0.05251902

arith.constant3 f4 [10]
0	0x3c36dae4	0.011160586
1	0x3e20d4e1	0.15706207
2	0x3b2edc26	0.0026681512
3	0x3e79e118	0.24402273
4	0x3e4a0940	0.19730091
5	0x3ef22555	0.47294107
6	0x3e2af619	0.16695441
7	0x3e9ab143	0.30213365
8	0x3e8ac2d9	0.27101782
9	0x3bdb69d4	0.0066959653

sequential_1_1/dense_3_1/BiasAdd/ReadVariableOp f4 [20]
0	0xbe91cf06	-0.2847826
1	0x3dd6998d	0.10478506
2	0xbee0d9e7	-0.43916246
3	0x3e8d6d5f	0.27622506
4	0x3e84178c	0.25799215
5	0xbe9b452a	-0.30326205
6	0xbeadb3c6	-0.3392622
7	0x3d8fcdaa	0.07021649
8	0xbdfaa8e4	-0.122392446
9	0x3d7c6679	0.061621163
10	0xbeab505b	-0.33459744
11	0xbec1c632	-0.37846524
12	0x3e6329dc	0.22183937
13	0xbdff4adc	-0.1246545
14	0xbe1450cc	-0.14483947
15	0xbe4f01c7	-0.20215522
16	0x3e11511d	0.14191099
17	0xbe9355a6	-0.28776282
18	0xbec6caf6	-0.38826722
19	0xbea1f43f	-0.31631657

sequential_1_1/dense_3_1/MatMul f4 [20, 42]
0	0xbe4865bc	-0.19570059
1	0xbe127162	-0.14301065
2	0xbe8659cc	-0.26240385
3	0xbfdb289d	-1.7121769
4	0x3cf84be1	0.03030962
5	0xbf04dff7	-0.51904243
6	0x3db1ef9c	0.0868828
7	0xbef2b2cb	-0.47402033
8	0x3da52fe3	0.08065774
9	0xbe2e79d1	-0.17038657
10	0xbcf3f9e2	-0.02978224
11	0x3d20d22e	0.039262943
12	0x3d1a56d9	0.03768048
13	0xba59d476	-0.0008309552
14	0x3bb4fa58	0.0055230074
15	0xbcf1f95a	-0.029537845
16	0x3d31f93e	0.043450586
17	0x3c732025	0.014839207
18	0x3cd12bb2	0.02553353
19	0xbab05059	-0.001345168
20	0x3d193aa4	0.03740944
21	0xbd064df6	-0.032789193
22	0x3d2d48c2	0.042305715
23	0xbc893624	-0.01674945
24	0x3bd19bf4	0.006396765
25	0x3c4334c9	0.01191444
26	0x3f379744	0.7171519
27	0x3d162dbf	0.03666472
28	0xbf0b2322	-0.54350483
29	0xbd718482	-0.05896426
30	0xbf22b795	-0.63561374
31	0x3c349a55	0.011023124
32	0xbe992b72	-0.2991596
33	0xbb8c332a	-0.00427856
34	0x3f7491bb	0.9553487
35	0x3a3042bc	0.00067238114
36	0xbe4c157b	-0.19930069
37	0xbd5dc5fb	-0.054143887
38	0xbedd88e6	-0.43268508
39	0xbd7a07c4	-0.061042562
40	0xbeed0643	-0.4629384
41	0x3b55ca6a	0.003262187
42	0xbd803982	-0.06260969
43	0xbdfde128	-0.12396461
44	0x3f74d9e2	0.9564496
45	0x3daac0f2	0.08337583
46	0x3f26c6d9	0.6514717
47	0x3e798f3b	0.24371044
48	0x3f835d6c	1.0262885
49	0x3b01e8ea	0.0019822665
50	0x3f29aef7	0.662826
51	0x3ce381d8	0.027771875
52	0x3ece759d	0.40324107
53	0x3c94f1f0	0.018181771
54	0x3f6bb5ce	0.92074287
55	0x3e0b8db6	0.13628277
56	0x3f4eae73	0.8073494
57	0xbde63dc9	-0.11242253
58	0x3f5395ff	0.8265075
59	0x3dfee4bd	0.12445972
60	0x3e407d1e	0.18797728
61	0xbe4691aa	-0.19391504
62	0x3ecf8e3c	0.40538204
63	0xbe26a444	-0.162736
64	0x3f12e760	0.573843
65	0x3d05b1aa	0.032640137
66	0x3f22b1ab	0.6355235
67	0x3cf4f972	0.029904101
68	0xbdfdc29d	-0.12390635
69	0xbe266cd2	-0.16252449
70	0x3e2c0ac5	0.16800983
71	0x3dfcb999	0.123400874
72	0x3e90e176	0.28297013
73	0x3cbf7c7c	0.023374788
74	0x3e336759	0.17519893
75	0xbe01ef18	-0.12688863
76	0xbee89b16	-0.4543082
77	0x3e11a0ff	0.14221571
78	0xbc0fd3fc	-0.008778568
79	0x3c2b495f	0.010454505
80	0xbe295e1c	-0.16539806
81	0xbc975cb2	-0.018476818
82	0x3e1835dd	0.14864297
83	0x3d53d0f2	0.051712938
84	0xbd7100d0	-0.058838665
85	0x3e0613d0	0.13093495
86	0xbdbd9b3e	-0.09258126
87	0xbf40845e	-0.75201976
88	0xbc87289f	-0.016498862
89	0x3e116f7d	0.14202686
90	0x3e03639d	0.12830968
91	0xbf300184	-0.6875231
92	0x3de2718a	0.11056812
93	0xbf9b7a7d	-1.2146755
94	0xbcc41113	-0.023933923
95	0x3aea7810	0.0017888565
96	0xbb40dddd	-0.0029429116
97	0x3cbbd0da	0.022926737
98	0x3cd040aa	0.02542146
99	0x3bb0385b	0.005377812
100	0x3d9c2087	0.076233916
101	0x3cf21525	0.029551098
102	0x3c9605a7	0.018313242
103	0xbccffe07	-0.025389684
104	0xbe2009d8	-0.15628755
105	0x3b97be6e	0.0046308553
106	0xbce9396b	-0.028469762
107	0x3c919aa9	0.017773943
108	0x3df83b29	0.12120659
109	0x3c98bead	0.018645609
110	0x3f57d66b	0.8431155
111	0x3c8bf88d	0.017086292
112	0xbee3492d	-0.44391766
113	0xbb95d814	-0.0045728777
114	0xbe92f990	-0.28706026
115	0xbbc249ac	-0.0059291925
116	0xbe5a1212	-0.21295956
117	0xbb619730	-0.003442239
118	0x3f1648a7	0.5870461
119	0xbdc4d048	-0.09610039
120	0xbd1ef497	-0.038807478
121	0xbd7f7220	-0.062364697
122	0xbe04148e	-0.12898466
123	0xbc99a351	-0.018754633
124	0xbe3a3458	-0.1818403
125	0x3a84fd14	0.0010146224
126	0x3e54c290	0.20777345
127	0xbd5f9c78	-0.05459258
128	0x3eede8b3	0.46466598
129	0x3f963116	1.173373
130	0x3ea3af91	0.31969884
131	0x3efcd36d	0.49380055
132	0x3ea78d43	0.32724962
133	0x3e8fbc4d	0.2807335
134	0x3f2408ea	0.640761
135	0x3e070442	0.13185218
136	0xbd0d8dc9	-0.034559045
137	0x3dc87c13	0.0978929
138	0x3b8fa41f	0.0043835784
139	0x3bafffcc	0.0053710695
140	0x3e0ea60c	0.1393053
141	0x3bef8fd1	0.0073108454
142	0x3d77b733	0.060477447
143	0x3c5b9d40	0.013404191
144	0xbedf1178	-0.43568015
145	0x3d2a6c59	0.041607235
146	0xbe8db0f5	-0.2767407
147	0xbd0c295e	-0.03421914
148	0x3e248075	0.16064627
149	0xbc273c34	-0.010207225
150	0x3c95514f	0.018227248
151	0xbc616118	-0.013756059
152	0xbf13934f	-0.5764665
153	0xbd22c401	-0.039737705
154	0xbd4024f9	-0.04691026
155	0xbc3140c9	-0.010818669
156	0xbde4c6e0	-0.11170745
157	0xbd800de1	-0.06252647
158	0x3de88de8	0.113551915
159	0xbcd776fe	-0.026301857
160	0xbd63f5f7	-0.055654492
161	0xbcf1d384	-0.029519804
162	0xbd301d92	-0.04299695
163	0xbc2ebf9d	-0.010665801
164	0x3e4473b9	0.1918477
165	0xbdbe8ae3	-0.09303834
166	0x3e96ed3f	0.2947788
167	0xbd897c61	-0.067131765
168	0xbe92bfd1	-0.2866197
169	0x3c00eb20	0.007868558
170	0x3edd876d	0.43267384
171	0x3f1c258a	0.6099478
172	0x3ee48f3f	0.44640538
173	0x3de0d2f1	0.10977734
174	0x3f574a55	0.84097797
175	0x3d3b959f	0.045796987
176	0x3f61ec56	0.88251245
177	0xbc9e3db2	-0.019316528
178	0x3f132562	0.57478917
179	0x3d675872	0.056480832
180	0x3ea6b6c0	0.32561302
181	0x3d93b840	0.07212877
182	0x3f8a9004	1.08252
183	0xbcdf4726	-0.027255606
184	0x3f3bd9e9	0.7337938
185	0xbc89879d	-0.016788298
186	0xbce82a71	-0.02834055
187	0x3c96fa4d	0.0184299
188	0x3ed7ffd3	0.42187366
189	0xbe31b0ce	-0.17352602
190	0x3ed5e23e	0.41774172
191	0x3cf59b3f	0.029981254
192	0x3ef84ef9	0.4849775
193	0xbe207e3d	-0.15673156
194	0xbd0b9d95	-0.03408583
195	0x3d8f2a69	0.06990511
196	0x3e0a7348	0.13520539
197	0xbda7ad3e	-0.0818734
198	0x3e34531f	0.17609833
199	0x3d42e6d1	0.047583405
200	0x3de51cbd	0.11187122
201	0x3d81fca8	0.063470185
202	0xbe4a7d40	-0.19774342
203	0x3c85fcb8	0.016355857
204	0x3de69854	0.11259523
205	0xbe96fde6	-0.29490584
206	0xbe236208	-0.15955365
207	0xbd4712e2	-0.048601992
208	0xbd36c01d	-0.044616807
209	0xbcc43db8	-0.023955211
210	0xbe0e1e2c	-0.13878697
211	0x3e571030	0.21002269
212	0x3d543cbe	0.05181574
213	0xbeccf54d	-0.400309
214	0x3d3f723f	0.046739813
215	0xbd089a22	-0.033350118
216	0x3d1eeb6f	0.038798746
217	0x3e395f20	0.18102694
218	0x3d0697e1	0.032859687
219	0xbfbdef05	-1.4838568
220	0xbcbf4fed	-0.023353541
221	0xbc4b798f	-0.012419119
222	0x3b0d3f3a	0.0021552579
223	0x3b97e45c	0.004635377
224	0x3c211952	0.009832697
225	0xbb7b5faa	-0.003835658
226	0x3c934219	0.017975854
227	0x3c258fb3	0.010105061
228	0x3c8e3390	0.017358571
229	0x3ce2be8e	0.027678754
230	0xbcd58d98	-0.026068494
231	0xbc11f355	-0.0089081125
232	0x3d116084	0.035492435
233	0x3b295602	0.0025838618
234	0xbc08145d	-0.008305636
235	0x3c37ca0e	0.011217607
236	0x3e1a55dd	0.15071817
237	0x3ac55c14	0.0015057349
238	0xbda7e9b7	-0.081988744
239	0x3c36ae66	0.011149978
240	0xbebbb7ba	-0.3666361
241	0x3c10177b	0.008794661
242	0xbda193aa	-0.07889493
243	0x3c8ca666	0.017169189
244	0x3ebcb0b9	0.3685358
245	0x3ca4ed86	0.020132791
246	0xbe373d34	-0.17894441
247	0xbb6a544b	-0.003575581
248	0xbe308d33	-0.17241363
249	0xbb377436	-0.002799285
250	0xbe312b94	-0.1730178
251	0x3c9e73e0	0.019342363
252	0xbe1c8377	-0.15284525
253	0xbda67d70	-0.08129394
254	0x3dbda110	0.09259236
255	0xbe83c658	-0.25737262
